kubernetes/apps/home/wyoming-openwakeword/models/hey_glados.tflite (tflite, 206748 bytes, 9 tensors)

Const_1 f4 [32]
00000000: 1818 503c 927d ae3c 1793 8fbb 165e 1e3c
00000010: f813 17bb 9e44 97bc 20ea 85bb 7354 21ba
00000020: 263b ce3b 8c3c cebc f290 41bc 9bab a4bc
00000030: d9c2 14bc e68b b23b db4d 2abc 56a8 0abc
00000040: 3c2c d83b 3650 eb3a 4800 b33c 3222 62bc
00000050: 8f31 833c efbc b7bc a010 1dbb 18d7 99bc
00000060: a473 263c 53fb 3f3c 6f3a 453c ea5d 07bd
00000070: d6a5 e83c e83f f7bb b767 6abb f798 22bc
0.012701057 0.021300111 -0.004381548 0.0096659865 -0.0023052674 -0.018465336 -0.0040867478 -0.00061542465
0.006293672 -0.025175355 -0.011814343 -0.02010136 -0.009079658 0.005448806 -0.010394539 -0.008462986
0.00659707 0.0017952982 0.02185072 -0.013802098 0.016014842 -0.022428958 -0.0023966208 -0.018779323
0.010159407 0.011717635 0.012037857 -0.033048548 0.02839939 -0.00754546 -0.0035767385 -0.009924165

Const_2 f4 [32]
00000000: e9bb 813f 1280 7f3f e759 7f3f d866 843f
00000010: 787e 7f3f c020 7e3f fe32 6f3f 13d1 7e3f
00000020: 6e2b 803f f2b7 7b3f b0c7 7b3f 2a48 7f3f
00000030: 6262 7e3f c6f4 7a3f baed 773f 7704 7e3f
00000040: 8c1e 753f 43bc 833f 6fd5 793f 5356 7f3f
00000050: a79d 823f acff 7c3f 0624 7f3f c821 7b3f
00000060: 8a81 7f3f e759 7e3f fa3c 843f 1804 803f
00000070: b4ea 7b3f f786 873f 4870 873f b2ea 7f3f
1.0135471 0.99804795 0.99746555 1.0343885 0.9980235 0.9926872 0.9343718 0.9953777
1.0013254 0.98327553 0.98351574 0.9971949 0.9936887 0.98029745 0.96847117 0.9922556
0.95749736 1.0291828 0.975913 0.99741095 1.0204362 0.98827624 0.9966434 0.9809842
0.99807036 0.9935593 1.0331109 1.0001249 0.98405004 1.0588063 1.058114 0.9996749

Const_3 f4 [32]
00000000: 8c4c 1c3c 0613 55bc 9614 b0bb 56a5 013c
00000010: 8bb8 30bc 815c 173d 245b 3a3c 64fe 173d
00000020: a422 163d 1c4f e73c 5f9a 2e3c d7d3 65bc
00000030: 563e ed3c a2ed 4dbc f602 043c 744a 92bc
00000040: 478d 853b 681b 283d 43c4 ed3b 6def 10bb
00000050: 983e 673a 6274 063d 7427 11bc e20e 863c
00000060: 9723 5bbc ec66 90bc 96e7 173d a8b8 1539
00000070: d3a3 b13b 8665 d43c 38b4 bd3d 4cbb c9b9
0.009539735 -0.013005024 -0.005373548 0.007912954 -0.010786186 0.036953453 0.011374269 0.03710784
0.03665413 0.028235964 0.010656922 -0.014027557 0.028960388 -0.012568863 0.008057347 -0.017857768
0.0040756795 0.04104176 0.0072560622 -0.0022115365 0.0008821278 0.032825835 -0.008859504 0.016364519
-0.0133751845 -0.017627202 0.037086092 0.00014278537 0.0054211407 0.025927316 0.092628896 -0.00038477255

Const_5 f4 [32]
00000000: 38e2 1d3d 7728 313d 867c 39bb 66ae 1d3e
00000010: b6b8 04be 27e8 763d ae22 ba3d 2b5e 97bd
00000020: d553 8ebd cc78 c53d b8bb c6bd 0f5f 553d
00000030: dfaf e5bd 284f b43d 7f34 db3b e8ba 9bbd
00000040: 73f6 1e3e 7eff 2d3e a3d9 abbc 0645 1a3d
00000050: 8e8a 8fbd 667a 36be 3055 d5bd 4719 6ebd
00000060: 1b79 dd3c 7eba 023e fc01 b7bd e456 1c3e
00000070: 686d 8fbd a8f7 833d 4534 003e b4c1 1a3e
0.038545817 0.04325148 -0.0028302982 0.15398559 -0.12961087 0.06027999 0.09088646 -0.07391008
-0.069495834 0.09642181 -0.09703773 0.052092608 -0.112151854 0.0880416 0.0066896076 -0.07604009
0.155237 0.16991994 -0.0209778 0.037663482 -0.07008849 -0.17820129 -0.10416639 -0.058129575
0.027035287 0.12766454 -0.08935925 0.15267521 -0.070032895 0.06443721 0.12519939 0.15112954

Const_6 f4 [32]
00000000: 1088 803f 5a12 7f3f 3fc8 7f3f 0ff8 9e3f
00000010: d25a 803f cb5a 9e3f 54d2 8d3f 0e8e 8b3f
00000020: ae46 813f 6ad2 7f3f fdc1 8e3f 6bdc 8b3f
00000030: 5aaa 803f fab3 9f3f a94f 823f 1063 7e3f
00000040: 84aa 8a3f 6ec2 9f3f 5a74 873f 2ad6 803f
00000050: 3351 ab3f 0dc9 8c3f 0221 913f ee68 813f
00000060: 163f 9d3f 66e2 843f c5fa a73f 1fc4 b13f
00000070: dff1 6d3f 5482 6c3f cef1 813f 9215 803f
1.0041523 0.9963738 0.99914926 1.2419451 1.0027716 1.2371458 1.1079812 1.0902727
1.0099695 0.9993044 1.115295 1.0926641 1.0051987 1.24768 1.018056 0.9936991
1.0833287 1.248121 1.0582383 1.0065358 1.3384155 1.0998856 1.1338198 1.0110147
1.2284877 1.0381591 1.3123404 1.3887976 0.9294719 0.92386365 1.0151918 1.0006583

Const_7 f4 [32]
00000000: 6c39 8a3c 70ad 14bc 1fa3 c6bb 681f 7a3e
00000010: 5409 b73b 82ef 793e 90a4 6e3d cefe 063d
00000020: 578c f53b 506e 69ba 42c3 133d 6b1b cb3c
00000030: 4c8e 43bc 0cec 7e3e 4eda 473c 6abe d0bc
00000040: 4ec8 423d 172c 7e3e a453 8d3d a2ca c738
00000050: ea08 943e cef0 3e3d 94e7 083e 965e 27bc
00000060: 8617 7b3e de8e b23c 9a0e 8f3e 0ad7 9d3e
00000070: 8c95 6dbd 0a64 a0bd d350 5d3c dbf3 6d3c
0.016873084 -0.009074554 -0.006061926 0.24426043 0.005585829 0.24407771 0.058262408 0.032957844
0.0074935365 -0.00089046825 0.036074884 0.024793347 -0.011935782 0.24894732 0.012198044 -0.025481422
0.047554307 0.24821506 0.06900719 9.526803e-05 0.2891305 0.046616368 0.1336959 -0.010215422
0.24520692 0.02179664 0.27940828 0.30828124 -0.058003947 -0.07831581 0.0135080395 0.014523472

MatMul f4 [32, 1536]
00000000: eea5 ea3b 6833 e93c b08d d7bc b00f eabc
00000010: dfe6 113c 4224 c7bc 1029 7739 76cd f9bc
00000020: 6381 0c3c efd6 323b 388d 833b 5767 443b
00000030: ac24 2ebc ec22 fd3b 3411 a0bc 07c1 3f3c
00000040: 2ffa c93a ac5a c93c 17e1 96bc 12b3 a63c
00000050: b2b1 1abc a408 0c3c eb6d 763c fc57 663b
00000060: bca1 5339 6414 13bc d7a1 acbc 53f2 80bc
00000070: 5211 bebc 5628 68bc 8bba 1e3c 203d b5bc
00000080: 1732 f2bb 50ee f8bc 9a8b 08bc 90e9 c13c
00000090: 7e07 8f3a 6a43 06bc b6d3 8b3c 5ae7 2d3c
000000a0: ae7c afbc c750 d93c 3014 bcbc 5997 053c
000000b0: c61c 15bd 0b41 c53b 38f4 8dbc d742 6cbc
000000c0: 9e61 82bb 2333 cd3c e0ca be38 a6db a6bb
000000d0: 642e 8d39 63cc 1e3d 008e 37bc 8e64 feba
000000e0: 9e76 dabb ca07 80bc 2e1b 86bc a74b 5bbc
000000f0: 77a4 433c a47b 25bc e529 29bb 2f3d f0bc
00000100: 5731 833c d638 c1ba a813 df3c 8f84 c83b
00000110: c162 29bc 5258 303d cc13 5dbc 3bac 34bc
00000120: ea44 f53c 164a 8c3c 2f65 2dbc ba19 a63c
00000130: ab44 fe3c b1ba a2bc d46e 06bc 38f8 92bc
00000140: ca52 8c3c 00c8 e73b adf7 a8bc 1683 c13c
00000150: 67ff 52bb e244 40bd 205b 7fbc c020 21bb
00000160: f834 6bbb 6f8c cbbc bf9d 2c3b 3eb9 d5bc
00000170: a7ce 7dbc 5307 febb b62b 6e3b cbbd d33c
00000180: 2cc8 c3bc b671 59bc ba3e 32bb 34d4 faba
00000190: 2bb0 a2bc 5c5a d33a d0c6 a33c c29c 43b9
000001a0: fe99 3bbc 748e 3cbc 531d 8f3c e8e3 46bc
000001b0: 3b85 01bc ceb7 2dbc 31c8 20bc 2e6e b3bc
000001c0: 134d b739 527d 663d 1f8c f3bc 0aea f53a
000001d0: 24c6 0f3c 69fe 013c 6075 723c ce5f abbc
000001e0: 6299 aa3a 98f2 18bc d05c a53c a742 67bc
000001f0: c722 9abc 20fc 5cbc b6ea e8ba 0bb0 aa3b
00000200: 189f 913b 54cc c2bb 6e1b febc 2be1 1d3b
00000210: 83ef 52bc c001 5e3c 70b5 773b 0884 20bc
00000220: a704 b5bc bb0f 93bc 721c 15bc ccbc 5cbc
00000230: 4f03 cfbc 8ffc 93bc ff29 5eb9 73fd 24bd
00000240: 9e97 9abc 4619 dd3c c6f5 0c3c 6e0f 403c
00000250: e6e9 0ebd 9bbb b33c f0f5 623c a43b fd3b
00000260: 5764 b23c ace1 7d3b f60a b23c 6e08 033c
00000270: a058 21ba e9fd 013c 7a0e 853b 7b9d 9c3c
00000280: 66bc acbc 042c 573c f279 723d 8c2f 3c3b
00000290: f83c a3ba 3329 abbb 9bec b4bb e05f 06bc
000002a0: cc7c 48bb 24f8 c53c ad32 243a 7208 203d
000002b0: 682c e13c 40dd de3b f266 663c ae1c b53c
000002c0: 4cf8 ed3c 7836 f9bc 82af 9cbb d8c1 1fbc
000002d0: 1af5 cdbb 643b 00bd c798 573c c6f0 5a3c
000002e0: 14b3 973c c4de b13c 0e77 ba3b 5757 6d3c
000002f0: f477 d63c 8361 62bc a607 853c d867 98bc
00000300: 028d 003d efd4 073d efa9 a1bc becb edbc
00000310: efa3 27bc f2f8 a3bc 96e8 70bb 877c 25bc
00000320: 1f34 8ebc 8876 7c3b a25f cfbc f8e9 a03c
00000330: cae2 fabb 0be7 42bb 9bc1 993c 0649 90ba
00000340: 6134 803c fe4b 483d c29d 74bc b0e3 5b3c
00000350: a47c a0ba 03c2 623c c0ce 7ebc cf53 6cbc
00000360: 06e4 30bc c716 8bba 47d6 5fbc b41d 08bd
00000370: ea93 e9bb a32b 37bb f635 563c 4334 3abc
00000380: 724e 8039 10b5 143c d3fe 4bbb 9b3d 32bc
00000390: 93ae 0f3c ad4c 813c 04b9 38b9 8c84 ec3b
000003a0: ae89 a03c af15 3d3c 9fd2 b7bc 6edd 953c
000003b0: b468 bebc 87d1 813c d3a0 3e3b b05d 0abd
000003c0: 9215 8b3c 1196 113d ae5e af3c 33d8 ec3b
000003d0: 957d 8cbc 6c00 463c 2a8c b33c 98c5 a6b8
000003e0: 3709 4bbc c6f9 55bc 6607 d93c 8031 bdbb
000003f0: b8c8 23bc 803a 7bbc cc44 c93c 8755 253c
0.0071608936 0.028466895 -0.026312679 -0.028571934 0.008905142 -0.024309281 0.00023571053 -0.03049348
0.00857577 0.0027288755 0.0040146373 0.0029968822 -0.01062886 0.0077251103 -0.019539453 0.011703736
0.0015409644 0.024579369 -0.018417878 0.02034906 -0.00944178 0.008546982 0.015040855 0.0035147658
0.00020182779 -0.0089770295 -0.021073265 -0.01574055 -0.023201618 -0.014169773 0.00968803 -0.022123873
-0.007391225 -0.030387074 -0.008334065 0.023670942 0.0010912267 -0.008194784 0.017068725 0.010614241
-0.021421757 0.026527775 -0.022958845 0.00815376 -0.036404394 0.0060197166 -0.017328367 -0.014420233
-0.003978922 0.025048798 9.0976944e-05 -0.005092102 0.0002692818 0.038769137 -0.011203289 -0.001940863
-0.0066669723 -0.015628714 -0.016370382 -0.013384736 0.011941067 -0.010100279 -0.0025812325 -0.02932605
0.016014738 -0.001474167 0.027231053 0.006119318 -0.010338486 0.04305298 -0.0134934895 -0.011027391
0.029940087 0.01712517 -0.010583206 0.02027594 0.031038603 -0.019864412 -0.008205134 -0.017940626
0.01712932 0.0070734024 -0.020625914 0.023622077 -0.0032195689 -0.04694069 -0.015585691 -0.002458617
-0.0035889726 -0.024847237 0.0026339141 -0.026089307 -0.015491164 -0.007752338 0.0036341972 0.025847336
-0.02389916 -0.01327174 -0.0027198032 -0.0019136728 -0.019859394 0.0016124952 0.019992262 -0.00018655046
-0.011450289 -0.011508573 0.017470038 -0.012139298 -0.0079053 -0.0106029045 -0.009813354 -0.021903124
0.00034961905 0.05627186 -0.0297299 0.0018761766 0.008775268 0.007934191 0.014798492 -0.020919707
0.0013015682 -0.009335183 0.020185858 -0.014115012 -0.018815411 -0.013487846 -0.0017770145 0.0052089742
0.0044440143 -0.005944768 -0.031018939 0.002409051 -0.012874487 0.013550222 0.0037797354 -0.009797104
-0.022096945 -0.017951837 -0.00910102 -0.013472747 -0.025270132 -0.018064765 -0.00021187215 -0.04028077
-0.018871125 0.02698959 0.008603519 0.011722429 -0.03489103 0.021940043 0.013852581 0.007728057
0.021776361 0.0038739247 0.021733742 0.007997615 -0.0006154869 0.007934072 0.0040605636 0.019118061
-0.02108593 0.013133053 0.059198327 0.0028714864 -0.0012454083 -0.005223417 -0.0055213696 -0.008201569
-0.0030591963 0.024166174 0.0006263655 0.039070554 0.027486995 0.0068012774 0.01406263 0.022108402
0.029049061 -0.03042148 -0.0047816643 -0.009750806 -0.006285322 -0.03130664 0.013158984 0.013363069
0.018518008 0.021712668 0.005690462 0.0144861555 0.026180245 -0.013817194 0.016238999 -0.018604204
0.031384476 0.033162054 -0.019734351 -0.029027816 -0.010231956 -0.020016167 -0.0036759726 -0.01010049
-0.017358838 0.0038522799 -0.025314156 0.019642815 -0.00765643 -0.0029739763 0.018769076 -0.0011008091
0.015649976 0.048900597 -0.0149301905 0.013420984 -0.0012244177 0.013840201 -0.015552223 -0.014424278
-0.0107965525 -0.0010611647 -0.013661928 -0.033231452 -0.0071282284 -0.0027949593 0.013074389 -0.011364999
0.0002447251 0.009076372 -0.003112723 -0.010878946 0.008769649 0.015783632 -0.00017616531 0.0072179493
0.0195969 0.011540814 -0.0224393 0.018294062 -0.023243286 0.01584698 0.0029087558 -0.033780754
0.016978059 0.035543505 0.021407451 0.0072279214 -0.017149726 0.0120850615 0.021917421 -7.9523015e-05
-0.012392334 -0.013060039 0.026492786 -0.005773723 -0.009996586 -0.015333772 0.024568938 0.010091192

MatMul_1 f4 [32, 32]
00000000: 3f78 f23d 389a 683d e0c4 c83d 274d b0bd
00000010: a45b febd 024b 5c3d e89e 26bd 341f cf3d
00000020: 4a90 babc 30a2 3c3d 4646 72bd 5f86 e63d
00000030: 28eb 04be f21c 1b3d bb52 4a3d 2e93 163d
00000040: 3a17 943d 3e10 fc3d 0e3d b4bd b700 4ebd
00000050: 6cef e3bd f239 a7bd 1074 d6bd fa5b d8bd
00000060: b711 da3b 4acd 453a ab2f b4bd e222 b0bc
00000070: c7d1 c3bd 767a a83d d6a5 6f3e 674f bd3d
00000080: 8687 d03d 16dd 7fbd e775 ad3d 3320 c7bd
00000090: 57e0 183e 66fd 04be 007c 123e 3828 80bd
000000a0: fedc 593d dcdd 0d3e 1fbd fd3d 00b9 503d
000000b0: 571b f7bc 26fa ffbd 3ec6 f0bd cd7a 13be
000000c0: f40e 00be 8ac3 043e 38cf abbd f6d9 22be
000000d0: 7f10 3cbc 5cf3 47bd 674a ef3d 4f7d 04be
000000e0: f7b6 fb3d c731 34bd ce2e 20be 8b6d e8bd
000000f0: a2d5 973d 52b2 163e 8733 853d 0f21 b23b
00000100: 2004 e9bd 3f7c c1bd 242c 2d3e 8e8c 463e
00000110: 7bb8 413d 68ed 22be fbef e13b f0ff bebc
00000120: 9354 583c 50d7 c1bd 8306 f53d 08f1 953d
00000130: b3d5 6e3d 2884 e1bd 33c4 773c dc72 163e
00000140: a263 15be e775 0fbe 3e3c 4c3d 0e98 3e3d
00000150: f41c c6bd 34f5 2cbc f486 ed3d dc08 153e
00000160: 6c5a 9c3d 16a0 3abc 5ad8 d4bd 40b3 2f3e
00000170: 0fc9 c3bd 1b63 143e 67b3 c7bd 3005 ef3d
00000180: aeff 4e3d 181d a8bd 0cea 58bd 5a61 65bd
00000190: 927f a6bd e46d fbbd 93d9 ecbd 64c4 583e
000001a0: dafc e9bd 6140 213e 9c47 353d 8758 b33c
000001b0: 0bf0 fdbd fa97 24be 77e0 333c 8895 313e
000001c0: df11 b93d e823 1b3e b3aa 923d cadb f4bd
000001d0: 4153 27be 53eb 0fbe f833 ccbd 9b99 3b3d
000001e0: 0a60 2dbe 421c 8a3d 5b02 f73d c286 0bbe
000001f0: 5e05 ea3c 08ff 643e 23ae 683d d365 563d
00000200: bf20 d7bd dc55 0e3e abc8 b23c 3b3c 743d
00000210: b83e 813d f31f ac3b be6c c5bd 93fd 75bd
00000220: 7fc5 9f3d 1212 403d 07b9 d0bb bf53 e1bd
00000230: 47c8 c8bd dff9 0c3e 2b10 a3bb e491 b53b
00000240: c737 19bd 4f00 cdbd f79c 233d 9686 2e3e
00000250: 0cc1 273e e8d6 0fbe 4ae2 44bd 4bfa cf3d
00000260: dc64 133d f319 bcbd b42e d0bc 0b77 de3d
00000270: 4c77 993c 5832 b43d 16f9 a73d a3bf b63d
00000280: af45 42be 4a54 dbbd 32fb 53bd 0d2b 97bd
00000290: bb9f db3d 2b2e b53c 70ce 02be 8a7c 453d
000002a0: 03fe b13d 1799 9a3d 6851 89bd 0a2c b4bc
000002b0: 7c91 953d 3b42 b03c c48e 3f3e d0b8 9a3c
000002c0: 674d 9dbd e3d9 0c3e 2f8d bc3d cb60 ed3d
000002d0: e8c9 6dbd d83d f7bd ecab a53d 80d3 393e
000002e0: f5f1 1cbe a0e5 af3d 562d fb3d ed00 1d3e
000002f0: f4ac d73d 604b 3d3d 4e7e d43d 586a b9bd
00000300: 4ecb d23c e08d c93d 63be c33d a756 973d
00000310: 84a2 79bb 698a 153e 489f aebd cc3b 2abd
00000320: ac3e 113d 62d8 c63d 9c9f 06be 7cff afbd
00000330: dc47 023d c6c1 fdbd a4d3 863c db6f ed3d
00000340: d650 25be 1440 083d ec8f 633c ca37 ddbd
00000350: fa22 f53c 8c05 7e3d e296 0a3e fc11 bd3d
00000360: 0677 d3bd 3a87 dbbd 3a22 c63c 3adb 66bd
00000370: 9a73 003d c2c3 17be 66fe 3a3e 9864 1d3e
00000380: 2789 e2bd 5004 a4bd 3374 fa3d 6a5f 473e
00000390: 50d4 f3bc 24b7 1c3e 6e8d 0fbe 1b66 09be
000003a0: 3833 0a3e 4aac 2d3e 301a 363e e9e7 883d
000003b0: 80e6 023e 79d1 0d3e 090c 13bd 6804 71bd
000003c0: 18d0 5ebd 18a7 9e3c f80a 01be 3a2b b8bd
000003d0: 84de b5bc 24ba 303d a41a 403d 08eb 613d
000003e0: 7a62 ca3d 7275 603d 8c12 0c3c 9b8e 603d
000003f0: 84b1 98bd d23f 00be b47a 5c3e 5fd2 3a3d
0.11839341 0.0567877 0.09803176 -0.08608466 -0.12419823 0.05378247 -0.04067889 0.101133734
-0.02277388 0.04605311 -0.05914905 0.11256098 -0.1298033 0.0378694 0.049395304 0.036761455
0.072309926 0.123077855 -0.08800708 -0.05029365 -0.111296505 -0.08165349 -0.10471356 -0.10564418
0.006654944 0.0007545544 -0.087981544 -0.021501008 -0.09561496 0.082264826 0.23403105 0.092436604
0.10182099 -0.062466703 0.08469754 -0.097229384 0.14929329 -0.12987289 0.14305115 -0.06257671
0.05318927 0.13854164 0.123895876 0.05095768 -0.030164404 -0.12498884 -0.11756562 -0.14402314
-0.12505704 0.12965217 -0.08389133 -0.15903458 -0.011478542 -0.04881607 0.11684113 -0.12938426
0.12290757 -0.043992784 -0.15642855 -0.11349019 0.07413794 0.14716461 0.06503969 0.00543607
-0.1137774 -0.09447526 0.1691137 0.19389555 0.047295075 -0.15910876 0.006895063 -0.0233154
0.013203758 -0.09464896 0.11964133 0.07321364 0.05830927 -0.11011535 0.015122461 0.14692253
-0.14588788 -0.1400982 0.04986214 0.04653173 -0.09673491 -0.010556508 0.11598006 0.14554161
0.07634434 -0.0113907065 -0.10392828 0.17158222 -0.09559833 0.1449093 -0.09751015 0.11670911
0.050536804 -0.08208674 -0.05295758 -0.056001045 -0.08129801 -0.12276819 -0.115649365 0.21168667
-0.11425181 0.15747215 0.044257745 0.021892799 -0.123993 -0.160736 0.01097881 0.17342198
0.09036612 0.15150416 0.071614645 -0.11955984 -0.16340353 -0.14054613 -0.0997085 0.045800786
-0.16931167 0.06743671 0.12060996 -0.13625625 0.028567012 0.22362912 0.056806695 0.0523432
-0.10504293 0.1389994 0.021824202 0.059627753 0.06310791 0.005252832 -0.096398816 -0.06005628
0.07801341 0.046892233 -0.006369713 -0.110023014 -0.09803825 0.13767193 -0.0049762926 0.005541073
-0.03740671 -0.100098245 0.039944615 0.17043528 0.16382235 -0.14046824 -0.04806737 0.101551615
0.03598486 -0.09184637 -0.025412895 0.108625494 0.018733643 0.08798665 0.08201806 0.089232706
-0.18971895 -0.10709436 -0.05175323 -0.07381258 0.107238255 0.022116741 -0.12774062 0.048214473
0.08691027 0.07548731 -0.0670498 -0.021993656 0.073031396 0.021515956 0.18706805 0.018886954
-0.07680779 0.13754992 0.09206616 0.115907274 -0.05805388 -0.12072343 0.08089432 0.18147087
-0.15326674 0.08588719 0.122645065 0.15332384 0.10531035 0.04621446 0.10375653 -0.090534866
0.025731709 0.09841514 0.09557798 0.073895745 -0.0038091252 0.1460358 -0.08526474 -0.041560933
0.03546016 0.097092405 -0.13146824 -0.08593652 0.03180681 -0.12390475 0.01645834 0.115936
-0.16144118 0.033264235 0.013889294 -0.108016565 0.029923905 0.06201701 0.1353412 0.09231946
-0.10325436 -0.10719152 0.024186242 -0.056361414 0.031360246 -0.1482077 0.18261108 0.15370405
-0.11061316 -0.08008635 0.122291945 0.19469991 -0.029764324 0.15304238 -0.14018795 -0.13417856
0.13496101 0.16960254 0.17783427 0.06684858 0.12783241 0.13849439 -0.03590015 -0.058842093
-0.054397672 0.019366786 -0.1260184 -0.0899262 -0.02220083 0.043146268 0.046900406 0.055155784
0.09882064 0.054799505 0.008549344 0.0548235 -0.074557334 -0.12524346 0.21531183 0.04561078

MatMul_2 f4 [1, 32]
00000000: 9756 c5bd 1bd8 e43d 7f68 c3bd 0095 c8be
00000010: 7fec 87bc 427e c0be 7b2c 2d3e e8bb 063e
00000020: 926c 503d 521b f93d 3801 063e 6f8d 5a3e
00000030: a0ef 633d 23c3 bcbe 7b49 d83d cbf9 f63d
00000040: dc9f 603e 962b c0be 7349 523c ae4f 013e
00000050: c8f6 aebe d440 8b3e 174d 4bbe 7e18 bc3c
00000060: 226a b7be 289b 933d 9440 a9be a4ad babe
00000070: 1d82 0a3c 30a1 95bb ac74 f13d a91f 9d3d
-0.09635656 0.11174031 -0.095414154 -0.39176178 -0.016592262 -0.37596327 0.16911499 0.13157618
0.05088479 0.12163414 0.13086402 0.21343015 0.055648446 -0.36867628 0.1056089 0.12059363
0.21935982 -0.37533253 0.0128348945 0.12628052 -0.34172654 0.27197897 -0.19853626 0.022960898
-0.3582316 0.07207328 -0.33057082 -0.36460602 0.008453873 -0.004566334 0.117898315 0.07672054
